net_params_espcn_running.pkl (torch, 109505 bytes, 6 tensors)

conv1.weight f4 [64, 3, 5, 5]
0	0xbde31024	-0.11087063
1	0x3d6a36c3	0.05718113
2	0xbdbede1d	-0.093197085
3	0xbdd1aa69	-0.10237581
4	0xbbc2e6a4	-0.0059479047
5	0x3d4a9dcf	0.049466904
6	0x3e24694f	0.16055797
7	0x3c98013e	0.01855528
8	0x3dd7c622	0.10535838
9	0xbb583a24	-0.003299364
10	0xbd99aeb6	-0.075040266
11	0x3d21c5fb	0.03949545
12	0x3ddf2a30	0.108967185
13	0x3c2126a5	0.009835874
14	0xbde64382	-0.11243345
15	0x3dead986	0.114672706
16	0x3e3db327	0.18525372
17	0x3dc4d9ea	0.09611876
18	0x3dff5550	0.12467444
19	0x3d939fc6	0.07208209
20	0x3dd44b3c	0.10365912
21	0x3d575f7d	0.0525813
22	0x3a83e3ef	0.0010062436
23	0x3da043b3	0.078254126
24	0xbc85db64	-0.016339965
25	0x3dbcc3d9	0.092170425
26	0xbcc14ba0	-0.023595631
27	0x3db3334b	0.08750018
28	0xbd81aa3e	-0.06331299
29	0x3d39297c	0.04520558
30	0x3d19117a	0.037370183
31	0x3dd5c887	0.10438638
32	0xbd377161	-0.04478586
33	0x3d1535d6	0.036428295
34	0xbd8319c6	-0.064014
35	0x3af290b3	0.0018506258
36	0x3e39858e	0.18117353
37	0x3e18a392	0.14906147
38	0x3d7acb16	0.061228834
39	0x3d8c3a54	0.06847063
40	0x3da67409	0.08127601
41	0x3e5b6db9	0.21428575
42	0x3dfad698	0.12247962
43	0x3c65abd2	0.014018016
44	0xbcb97408	-0.022638336
45	0xbbf6252c	-0.0075117555
46	0x3dfb1563	0.122599386
47	0x3e19b7f0	0.15011573
48	0xbdbe73b9	-0.09299416
49	0xbd3cbf36	-0.04608079
50	0xbd9ed7ac	-0.0775598
51	0x3dafcbe5	0.08583812
52	0x3cbf1b94	0.02332858
53	0xbe1c48a4	-0.15262085
54	0x3cd46b6a	0.025930125
55	0x3d440bdd	0.047862876
56	0x3ce29f2f	0.027663795
57	0x3cf8f2df	0.030389247
58	0x3c9a5487	0.018839134
59	0xbd7764a8	-0.060398728
60	0xbdcb214c	-0.0991846
61	0x3b87db62	0.0041460255
62	0x3e03976e	0.12850735
63	0xbd514f60	-0.05110109
64	0xbd17f5c5	-0.03709962
65	0x3da9d76a	0.0829304
66	0x3e11f240	0.14252567
67	0x3e483a23	0.19553427
68	0xbc35924d	-0.011082244
69	0x3d6169be	0.055032484
70	0x3d943aea	0.072377995
71	0x3d820b42	0.063498035
72	0xbbb00f36	-0.005372907
73	0x3cf0cb24	0.02939374
74	0xbd8a00aa	-0.06738408
75	0x3da94871	0.0826577
76	0x3dc76dfa	0.09737773
77	0xbd246389	-0.040133987
78	0x3e0c15d6	0.13680205
79	0x3dcf6cc9	0.10128171
80	0xbdcc0a28	-0.09962875
81	0x3d80eb42	0.06294872
82	0x3c86808d	0.01641872
83	0xbdc5a537	-0.09650653
84	0xbd07fc04	-0.033199325
85	0xbd092a43	-0.03348757
86	0x3da9607d	0.08270357
87	0x3db9d399	0.09073562
88	0x3c4c9282	0.012486102
89	0xbe091788	-0.13387883
90	0xbc0eeb1a	-0.008723045
91	0x3d707a0d	0.058710147
92	0xbdddd249	-0.10831124
93	0xbde58e07	-0.1120873
94	0xbdbcb0cf	-0.09213411
95	0xbc7248d8	-0.014787875
96	0x3d77d4fe	0.06050586
97	0x3d9c3145	0.07626585
98	0x3de0a626	0.1096919
99	0x39a4f4b8	0.00031462847
100	0x3afcc6b6	0.0019285295
101	0x3d74f79f	0.059806462
102	0x3da73f5d	0.081663825
103	0x3dd58c9b	0.10427209
104	0xbb917488	-0.0044389404
105	0xbd3ab5df	-0.045583602
106	0x3d262632	0.04056377
107	0x3deef28d	0.11667357
108	0xbdfac48e	-0.12244521
109	0xbc858ad6	-0.016301554
110	0xbe0b834e	-0.13624308
111	0x3d371a95	0.044703085
112	0xbd9be2b5	-0.076116
113	0x3dcb04e9	0.09913046
114	0xbdb8bbb5	-0.09020177
115	0xbdb45efc	-0.08807179
116	0xbc2fb67c	-0.01072466
117	0xbdc90b37	-0.09816592
118	0xbceb88e3	-0.028751796
119	0xb960777a	-0.00021406813
120	0xbd28333a	-0.04106448
121	0x3df047ea	0.117324665
122	0x3dad8d9a	0.08474274
123	0xbdd22ffb	-0.10263058
124	0x3c24870c	0.010041963
125	0x3c1bb9a7	0.009504712
126	0x3d6e52fc	0.05818461
127	0x3d7a9591	0.061177794
128	0x3d77d595	0.060506422
129	0xbbc376fa	-0.005965111
130	0xbd409fe3	-0.04702748
131	0xbd8f8e36	-0.070095465
132	0xbd8faf55	-0.07015864
133	0xbd8cdf10	-0.06878483
134	0xbd8e5022	-0.06948878
135	0x3d6d76f9	0.05797479
136	0x3c319fa0	0.01084128
137	0x3e04946a	0.1294724
138	0x3d95b3b2	0.07309665
139	0xbcd4cbf5	-0.02597616
140	0x3d02143b	0.031757575
141	0xbc58b8be	-0.01322764
142	0xbdb2a2ce	-0.08722459
143	0xbdfdf3fd	-0.12400053
144	0x3c9dd572	0.019266818
145	0xbdc7acd2	-0.0974976
146	0x3de08e4e	0.109646425
147	0xbc508fd2	-0.012729602
148	0x3dc7878f	0.097426526
149	0x3bdda60b	0.0067641786
150	0x3dbb5205	0.09146503
151	0xbd937b65	-0.0720127
152	0x3d3ca06b	0.046051424
153	0x3e349003	0.17633061
154	0x3e28e49e	0.1649346
155	0xbc1b0036	-0.0094604995
156	0xbcc34492	-0.023836408
157	0xbd618831	-0.055061523
158	0xbe129ebd	-0.14318366
159	0x3d2b7baa	0.041865982
160	0xbce95246	-0.028481614
161	0x3ceeafe3	0.029136604
162	0xbcc9c66b	-0.024630746
163	0x3d8cd698	0.06876868
164	0xbd988691	-0.074475415
165	0x3d334199	0.04376373
166	0xbd95ffeb	-0.07324203
167	0x3d0756af	0.033041652
168	0xbdee46f9	-0.11634631
169	0xbbf8f5cb	-0.00759766
170	0x3d2dfb06	0.042475723
171	0x3dc7f217	0.09762972
172	0x3de1f92c	0.11033854
173	0xbdc0b8c4	-0.09410241
174	0x3ae6657f	0.0017577856
175	0x3c16d026	0.0092049
176	0x3bc3ae96	0.00597174
177	0x3e378670	0.17922378
178	0x3d078986	0.033090137
179	0x3de60aea	0.112325504
180	0xbdbc7144	-0.09201291
181	0xbced6d1d	-0.028982693
182	0xbddf8324	-0.10913685
183	0xbdc30874	-0.09523097
184	0xbd590f66	-0.0529932
185	0x3d5188cf	0.05115586
186	0x3e005673	0.12532978
187	0x3e0e91f5	0.13922866
188	0x3d34775b	0.04405914
189	0x3d7ef240	0.062242746
190	0x3d19d913	0.037560534
191	0xbd919ae0	-0.07109618
192	0x3e28513e	0.16437241
193	0xbca22a84	-0.019795664
194	0x3d8a3d62	0.06749989
195	0x3d425a88	0.04744962
196	0x3dd01953	0.1016108
197	0x3db315a9	0.08744366
198	0x3cfb444b	0.030672213
199	0x3c7344f0	0.014847979
200	0xbd4beca5	-0.04978623
201	0xbdd4a45a	-0.1038291
202	0x39d5a0e2	0.00040746393
203	0xbd38ab92	-0.045085497
204	0xbdb49309	-0.08817107
205	0x3a8802a2	0.0010376761
206	0xbdc496a3	-0.09599044
207	0xbe11d5cc	-0.14241713
208	0xbe214d54	-0.15752155
209	0xbd958ccb	-0.07302245
210	0x3d2ef84e	0.04271727
211	0x3b8c5416	0.0042824848
212	0x3d65a4ca	0.05606536
213	0x3d3bdc10	0.045864165
214	0xbc91e45c	-0.017809086
215	0xbd0f5915	-0.034997065
216	0x3d1e67e2	0.03867329
217	0x3e0dc477	0.13844477
218	0xbdff5a04	-0.12468341
219	0x3b671700	0.0035261512
220	0xbda47074	-0.08029261
221	0x3ab928d7	0.0014126551
222	0xbd276032	-0.040863223
223	0xbd40e598	-0.047093958
224	0xbdb09ec1	-0.0862403
225	0xbc79d05f	-0.015247433
226	0x3d606bef	0.054790433
227	0x3dcd77de	0.100326285
228	0xbd2cca83	-0.042185318
229	0xbd559ef5	-0.052153546
230	0xbda9942f	-0.08280217
231	0x3de446d0	0.11146319
232	0xbd10d658	-0.035360664
233	0x3db233fa	0.0870132
234	0xbd4ec48c	-0.05048041
235	0xbd888ec3	-0.06667855
236	0x3e1387b2	0.14407232
237	0xbe498c52	-0.19682434
238	0x3da849ac	0.08217177
239	0x3c921c59	0.017835783
240	0x3db1366e	0.0865296
241	0x3e2dfe53	0.16991548
242	0x3d726585	0.059178848
243	0xbddaae2e	-0.106777534
244	0xbd79781f	-0.060905572
245	0x3da91e1e	0.082576975
246	0x3da40769	0.08009226
247	0x3dd22279	0.102604814
248	0xbdea8cf0	-0.11452663
249	0xbd9516a0	-0.07279706
250	0x3ca4a21b	0.02009683
251	0xbcf53567	-0.02993269
252	0x3cfca83c	0.03084194
253	0xbcc6209b	-0.02418547
254	0x3ac42e5a	0.0014967427
255	0xbc6452ea	-0.013935784

conv1.bias f4 [64]
0	0xbe111a2f	-0.14170144
1	0xbd111806	-0.0354233
2	0xbdee9a28	-0.11650497
3	0x3e5a993c	0.21347517
4	0xbd1f3cdc	-0.0388764
5	0x3e29edaa	0.16594568
6	0x3ccf51bb	0.025307527
7	0xbe28e0bb	-0.16491978
8	0xbe07c50e	-0.13258764
9	0x3dbdc367	0.09265786
10	0xbe98d0d2	-0.29846817
11	0xbe4db3eb	-0.20088165
12	0xbd7bdb97	-0.061488714
13	0xbe9ace41	-0.30235484
14	0xbd835836	-0.06413309
15	0xbe8d517c	-0.2760123
16	0x3e07358a	0.13204017
17	0xbd12ddf9	-0.03585622
18	0x3d9bd5a6	0.076091096
19	0x3cf92def	0.03041741
20	0x3df87af5	0.12132827
21	0xbd84f428	-0.064918816
22	0x3d9a2b78	0.07527822
23	0xbcb1f0ce	-0.02172127
24	0x3e485426	0.1956335
25	0xbe8230ae	-0.25427765
26	0x3e0b3c80	0.13597298
27	0xbdb8e722	-0.0902846
28	0xbd56588a	-0.05233053
29	0x3e0d1df0	0.13780951
30	0x3e867455	0.2626063
31	0xbeb29056	-0.34875745
32	0xbd3ec8ec	-0.046578333
33	0xbd1e8f03	-0.038710605
34	0xbe382136	-0.17981419
35	0x3d3f214b	0.04666261
36	0xbe15ccfd	-0.14628978
37	0x3e2e8f77	0.17046915
38	0x3d36ca93	0.044626784
39	0x3dfd5793	0.12370219
40	0x3debef79	0.11520285
41	0x3d7f4703	0.06232358
42	0x3e915afb	0.28389725
43	0xbe476f96	-0.1947616
44	0x3e5878e9	0.21139874
45	0xbe3decb9	-0.18547334
46	0xbe3c5559	-0.18391933
47	0xbe0b157e	-0.13582417
48	0xbdbe01da	-0.09277697
49	0x3d1c186f	0.03810924
50	0x3e4d2869	0.20034947
51	0xbbdd1fcb	-0.006748175
52	0xbe16e43c	-0.14735502
53	0xbe89fd99	-0.26951292
54	0x3dd0ffe7	0.102050595
55	0xbdcadce8	-0.09905416
56	0xbe62526f	-0.22101758
57	0x3d97c60b	0.074108206
58	0x3e29654e	0.16542551
59	0xbda8cbd3	-0.082420014
60	0xbd478bad	-0.04871719
61	0x3e06f21e	0.13178298
62	0x3d8dffb6	0.069335386
63	0xbd710b9d	-0.058848966

conv2.weight f4 [32, 64, 3, 3]
0	0x3c1cae42	0.009563031
1	0xbca3a572	-0.019976351
2	0x3d649bcb	0.05581264
3	0xbb9350da	-0.0044957222
4	0x3cf970ba	0.03044926
5	0x3c9e3f6d	0.019317353
6	0x3c7e634a	0.015526602
7	0x3ba3f9a0	0.005004123
8	0x3b70e304	0.0036756406
9	0xbd886a94	-0.06660953
10	0x3c9f4de9	0.01944633
11	0x3c7f53bb	0.015583928
12	0x3cd05050	0.025428921
13	0xbbd40790	-0.006470628
14	0xbc23078e	-0.009950532
15	0x3bec1198	0.007204246
16	0x3d25af45	0.040450353
17	0x3c86fc74	0.0164778
18	0xbd2b33ee	-0.04179757
19	0x3c8a933e	0.016915914
20	0x3c2a0f29	0.010379591
21	0x3d434c0b	0.047679942
22	0x3cafa85f	0.02144259
23	0xbccc8584	-0.024966009
24	0x3a91eb10	0.0011132676
25	0xbca3a01e	-0.01997381
26	0x3d89a82f	0.067215316
27	0xbcfc3a89	-0.03078963
28	0x3d68f309	0.0568724
29	0xbda423fe	-0.080146775
30	0xbd9e3554	-0.07725015
31	0xbd1b4abb	-0.037913065
32	0x3d19d4e4	0.037556544
33	0x3ba9424c	0.005165374
34	0xbd23f0ad	-0.04002445
35	0xbd0ee92e	-0.034890346
36	0x3a211089	0.00061441265
37	0x3ca0116e	0.019539561
38	0x3d0e3f5e	0.0347284
39	0xbd6da1d6	-0.058015667
40	0x3a4f4ad3	0.0007907573
41	0xbcd43c50	-0.025907665
42	0x3d57c94c	0.052682206
43	0xbcfb7510	-0.030695468
44	0x3d4c0927	0.049813416
45	0xbd00f95a	-0.0314878
46	0xbd586786	-0.052833103
47	0x3d275ec6	0.040861867
48	0x3d98e2fc	0.07465169
49	0x3cf97243	0.030449992
50	0xbd882b45	-0.06648878
51	0xbcee780d	-0.029109979
52	0x3c3915ac	0.011296671
53	0x3d66af8d	0.056319762
54	0xbceac596	-0.02865867
55	0xbd0bc906	-0.034127258
56	0xbd6b09d1	-0.05738241
57	0x3da3b430	0.079933524
58	0x3bb33d64	0.005469965
59	0xbd1b68fd	-0.03794192
60	0x3c9d2695	0.019183436
61	0xbd9c50a1	-0.07632566
62	0x3c68f427	0.014218367
63	0xbc4a4cc7	-0.012347407
64	0x3caa994c	0.02082505
65	0x3d4b1daf	0.049588855
66	0xbd0132c5	-0.03154256
67	0x3c907f73	0.017638898
68	0xbd0e0485	-0.03467228
69	0xbcee81ba	-0.029114593
70	0x3d0c994b	0.03432588
71	0x3c94befb	0.018157473
72	0xbd58820e	-0.052858405
73	0xbc1ef653	-0.009702283
74	0x3c9cc0c3	0.019134885
75	0x3c93d221	0.018044533
76	0xbb0c4bb8	-0.0021407437
77	0xbc9c834a	-0.019105572
78	0x3da84deb	0.08217987
79	0x3ca937c9	0.020656483
80	0x3a9de6d3	0.001204694
81	0xbbad2890	-0.0052843764
82	0xbbabec1e	-0.005246653
83	0xbcd3bbdc	-0.025846414
84	0x3cd99200	0.026558876
85	0x3d52aaaf	0.051432308
86	0xbc734df3	-0.0148501275
87	0x3ba3a1b1	0.0049936404
88	0xbca006c9	-0.019534485
89	0xbd176c65	-0.036968607
90	0x3cfd51c4	0.030922778
91	0x3bd30c93	0.006440708
92	0x3d2cd5af	0.042195972
93	0x3d789c2a	0.060695805
94	0x3bf53496	0.0074830754
95	0xbd0ac7e0	-0.033882022
96	0xbd40db26	-0.047083996
97	0xbcab8d34	-0.020941354
98	0xbd244673	-0.040106248
99	0x3d0ec58d	0.034856368
100	0x3d9363a5	0.0719674
101	0x3c15ac4c	0.009135317
102	0xbcd504bd	-0.026003236
103	0xba8a0896	-0.0010531123
104	0xbc8290b8	-0.015938148
105	0x3cf08faa	0.02936538
106	0xbda93fcd	-0.08264122
107	0x3d436709	0.047705684
108	0xbd6c37ce	-0.057670407
109	0x3d91bfba	0.07116647
110	0x3bb745f0	0.005593054
111	0x3d3d1c47	0.046169546
112	0xbd2ed4d6	-0.042683445
113	0x398daa40	0.00027020462
114	0xbd510d61	-0.05103815
115	0xbcde303a	-0.027122606
116	0x3d4701f0	0.048585832
117	0x3d59f90e	0.053216033
118	0x3d0b0add	0.033945907
119	0xbd210d80	-0.039319515
120	0xbc4a420d	-0.012344849
121	0x3d4eb8a5	0.05046906
122	0x3d6408cf	0.055672463
123	0x3d138883	0.03601886
124	0x3d32c8d6	0.043648563
125	0xbd1b77ca	-0.037956037
126	0xbcc3d4db	-0.023905208
127	0x3cb57e5c	0.02215498
128	0xbd833b4b	-0.064077936
129	0xbd3410a2	-0.043961175
130	0xba6379cb	-0.00086775114
131	0xbd7098e9	-0.058739576
132	0x3d84f2cc	0.06491622
133	0xbc26a891	-0.010172025
134	0xbd1b513d	-0.03791927
135	0x3d177b5b	0.036982875
136	0xbd517d76	-0.05114504
137	0x3ce5fa64	0.028073497
138	0xbce46cb0	-0.027883857
139	0x3c63d373	0.013905394
140	0xbc55c850	-0.0130482465
141	0x3d1001dc	0.035158023
142	0xbd8d0344	-0.068853885
143	0x3c23e270	0.010002717
144	0x3c09261e	0.008370904
145	0x3c745593	0.014912981
146	0x392fe77f	0.0001677554
147	0xbd1cc82e	-0.038276844
148	0x3cec8805	0.028873453
149	0x3d4c45b0	0.049871147
150	0x3c9bfd50	0.019041687
151	0xbcd0ab6a	-0.025472362
152	0x3b7ccb08	0.0038573164
153	0xbd3fb3c0	-0.046802282
154	0xbd2c2c47	-0.042034414
155	0x3c30c934	0.010790158
156	0xbd21817f	-0.039430138
157	0x3c8cbaed	0.017178977
158	0xbcb72b5b	-0.02235954
159	0x3c8ff848	0.017574444
160	0xbce1d5b1	-0.027567716
161	0xbccf8dfc	-0.025336258
162	0x3cde4978	0.027134642
163	0x3b77f100	0.0037832856
164	0x3b3fcb54	0.002926548
165	0xbcb68cdb	-0.022283962
166	0xbc353ce6	-0.011061883
167	0x3ccc79c2	0.024960402
168	0x3d394555	0.045232136
169	0xbc1887ed	-0.009309751
170	0xbd44b63d	-0.04802536
171	0x39123dc5	0.00013946656
172	0x3d54d829	0.05196396
173	0x3cc19191	0.023628982
174	0x3d6d3f7e	0.05792188
175	0xbc4ba3fe	-0.0124292355
176	0xbcb4a7e3	-0.02205271
177	0xbc221138	-0.009891801
178	0xbc9eb808	-0.019374862
179	0x3d2e13d0	0.042499363
180	0x3bc37bcc	0.0059656855
181	0x3d3b3399	0.045703504
182	0x3d44b0e4	0.04802026
183	0x3c6588cc	0.014009666
184	0x3d2d146b	0.0422558
185	0x3c995014	0.018714942
186	0x3b81418a	0.0039445804
187	0x3cfb7855	0.030697027
188	0x3d647166	0.055772208
189	0x3d725cf3	0.059170675
190	0x3d87413b	0.066042386
191	0xbd139881	-0.03603411
192	0x3d02b6dd	0.031912673
193	0xbd8f7dd0	-0.07006419
194	0xbb12672c	-0.0022339327
195	0xbb4c7285	-0.0031196189
196	0xbd1d1e00	-0.03835869
197	0x3d63f5cd	0.055654336
198	0xbb8b8107	-0.0042573246
199	0x3c65d5ef	0.0140280565
200	0x3d3e033a	0.046389796
201	0x3b371561	0.0027936327
202	0xbc83627d	-0.016038174
203	0xbd60861f	-0.054815408
204	0xbd52df3c	-0.051482424
205	0xbcef495f	-0.02920979
206	0x3d5a4875	0.053291757
207	0xbd071331	-0.032977287
208	0xbcd70891	-0.026249202
209	0xbc0163c4	-0.007897321
210	0xbd0a7264	-0.033800498
211	0x3d6e91ac	0.058244392
212	0xbd328363	-0.04358233
213	0xbce18820	-0.02753073
214	0x3d1b05ab	0.037847202
215	0x3ca4d6fa	0.02012204
216	0xba4174bf	-0.0007379762
217	0xbc8890e0	-0.016670644
218	0xbd67ac5b	-0.056560855
219	0x3c4eb99d	0.012617496
220	0xbd31dfe0	-0.043426394
221	0xbccb1021	-0.024787964
222	0xbc8451e2	-0.016152326
223	0xbd4a851b	-0.049443346
224	0xbc961838	-0.018322095
225	0x3c0d4687	0.008622772
226	0xbcc6b4b1	-0.024256082
227	0xbc821a6a	-0.015881736
228	0x3c85c5ae	0.016329613
229	0xbd0ddecd	-0.034636308
230	0x3d5435e3	0.051809203
231	0x3d3c813c	0.046021685
232	0x3ba35c54	0.0049853716
233	0xbcf92e6f	-0.03041765
234	0x3c82ffab	0.015991053
235	0xba85dcf8	-0.0010212949
236	0x3b877fc7	0.0041351053
237	0x3d675abf	0.056483027
238	0x3c924696	0.017855924
239	0x3d372099	0.044708822
240	0xbd06bf0e	-0.032897048
241	0xbc2c5558	-0.010518394
242	0xbcec5909	-0.028851049
243	0x3d1e6da0	0.038678765
244	0xbc9ef72b	-0.019404968
245	0x3d10991e	0.035302274
246	0x3c2e3575	0.010632862
247	0x3ceb2e7c	0.028708689
248	0x3be67129	0.0070325327
249	0xbcaa7e49	-0.02081217
250	0x3be89148	0.007097397
251	0x3c7fc243	0.01561028
252	0xbc996d09	-0.01872875
253	0xbbb60f40	-0.005556017
254	0xbd363cd0	-0.04449159
255	0x3cf346c0	0.029696822

conv2.bias f4 [32]
0	0xbd7dab77	-0.0619311
1	0xbe1a9ecd	-0.1509964
2	0xbd8d1956	-0.06889598
3	0xbd9833e4	-0.07431772
4	0x3e23bbf3	0.15989666
5	0x3e29c7ae	0.16580078
6	0x3e8605b1	0.26176217
7	0x3e218a27	0.15775357
8	0x3bf68088	0.0075226463
9	0x3cabc53a	0.020968068
10	0xbd191311	-0.0373717
11	0xbe2a2ed7	-0.1661943
12	0x3e2780e9	0.16357769
13	0xbde67c59	-0.11254186
14	0xbdb9435e	-0.090460524
15	0x3dc38be5	0.09548167
16	0xbd4a221e	-0.049348943
17	0xbd82064f	-0.063488595
18	0xbd05fb0e	-0.032710128
19	0xbdaf68b4	-0.085648924
20	0xbb401046	-0.0029306575
21	0xbe4d2946	-0.20035276
22	0xbe2a08cc	-0.16604918
23	0x3e2b408f	0.16723846
24	0xbd79c007	-0.060974147
25	0xbe3ec9ac	-0.18631619
26	0xbdd7224d	-0.10504589
27	0x3e0e6247	0.13904677
28	0xbd8d5ef2	-0.06902875
29	0xbd8454ce	-0.06461488
30	0xbd8bf97c	-0.06834695
31	0xbda737a3	-0.08164909

conv3.weight f4 [12, 32, 3, 3]
0	0xbd7db750	-0.0619424
1	0x3de65850	0.11247313
2	0xbc2ce5a3	-0.010552797
3	0xbc965cc0	-0.018354774
4	0xbcddec70	-0.027090281
5	0xba1600b4	-0.00057221507
6	0xbc53e8ab	-0.01293389
7	0xbded7bb0	-0.11595857
8	0x3dca841c	0.09888479
9	0x3de4a578	0.11164373
10	0x3e23b2e8	0.15986216
11	0x3d8400ca	0.06445463
12	0x3dabf463	0.083962224
13	0x3dbb1478	0.091347635
14	0xbc11747c	-0.00887787
15	0x3dc61b48	0.09673172
16	0x3d8a9902	0.06767465
17	0x3d32cebd	0.043654192
18	0xbcc1d4a1	-0.02366096
19	0x3e1deee0	0.15423155
20	0x3d6cba84	0.057795063
21	0xbd4f19a0	-0.050561547
22	0x3debcd8f	0.115138166
23	0x3cbc4bb2	0.022985313
24	0x3d542fc1	0.051803354
25	0xbce35765	-0.027751634
26	0x3d890acb	0.06691512
27	0x3e6aebeb	0.22941558
28	0x3e37d073	0.17950611
29	0x3e27863d	0.16359802
30	0x3e32cc39	0.17460717
31	0x3d4ce491	0.050022665
32	0x3dd2afaf	0.10287415
33	0x3e3ac854	0.18240482
34	0x3dca78c2	0.09886314
35	0x3e34b92a	0.1764876
36	0x3d87bfa0	0.066283464
37	0xbd395191	-0.045243803
38	0x3c884941	0.016636493
39	0xbdb353cd	-0.08756218
40	0xbc0b3088	-0.0084954575
41	0x3d81cf17	0.063383274
42	0x3d59f963	0.05321635
43	0xbd3c2b8a	-0.04593996
44	0x3d60ff9f	0.05493128
45	0x3d12b7a0	0.03581965
46	0xbdddf8a5	-0.10838441
47	0xbdac40eb	-0.084108196
48	0xbdf07bc5	-0.11742357
49	0xbe41aa8d	-0.18912716
50	0x3ba74152	0.0051042223
51	0xbbe9e6f6	-0.0071381284
52	0xbcf9444e	-0.030428078
53	0x3d092b14	0.033488348
54	0xbce9edd2	-0.028555784
55	0xbd8ae4a1	-0.06781889
56	0xbc5d824a	-0.013519833
57	0xbd0bcc68	-0.034130484
58	0xbce9aa88	-0.028523698
59	0xbd510230	-0.051027477
60	0x3d5e45a5	0.054265637
61	0x3d329f0e	0.043608718
62	0x3cb54ee0	0.022132337
63	0xbe0ce60f	-0.13759635
64	0xbe25b706	-0.16183099
65	0x3cdcc28f	0.026948242
66	0xbac30b3f	-0.0014880671
67	0xbdd341a6	-0.10315256
68	0xbc3a3531	-0.011365221
69	0x3d09fc0c	0.033687636
70	0xbdb77d8e	-0.089594945
71	0x3d4cbfb5	0.049987514
72	0xbc8e9e73	-0.017409539
73	0x3da11317	0.07864969
74	0xbd6e051b	-0.058110338
75	0xb914954d	-0.00014169999
76	0x3e19b435	0.1501015
77	0x3c2d9dae	0.010596676
78	0xbd8b67c9	-0.06806905
79	0xbd02979e	-0.031882875
80	0xbd0d2db9	-0.034467433
81	0xbc8f4498	-0.017488763
82	0xbd076463	-0.03305472
83	0xbdabbd41	-0.08385707
84	0x3d404cdc	0.0469483
85	0xbb99e9b6	-0.00469705
86	0xbda52a00	-0.080646515
87	0xbd8e9dc9	-0.06963689
88	0xbdd6bdf4	-0.104854494
89	0x3cb82061	0.022476377
90	0x3d874cf2	0.06606473
91	0x3e3cc442	0.18434241
92	0xbd826111	-0.0636617
93	0x3cd4ad32	0.025961492
94	0x3e20dd6c	0.15709466
95	0x3c13b7dd	0.009016004
96	0xbd1f4fd3	-0.038894486
97	0xbd4f66aa	-0.050635017
98	0x3d0defae	0.034652404
99	0x3d813a8d	0.06309996
100	0xbcb64afa	-0.022252548
101	0x3bd0f429	0.0063767624
102	0x3d98fc58	0.07470006
103	0x3dcf4ebc	0.10122439
104	0x3d3e3606	0.04643824
105	0x3d95258e	0.072825536
106	0x3db59317	0.08865946
107	0xbc1a787e	-0.009428142
108	0x3d59de0a	0.05319027
109	0xbc2c1e64	-0.010505293
110	0x3d079b76	0.033107243
111	0xbdb9fd19	-0.09081478
112	0xbde2efe4	-0.11080912
113	0x3d31fb12	0.04345233
114	0xbd0a1507	-0.03371146
115	0xbb78f496	-0.0037987581
116	0xbd38796f	-0.045037683
117	0x3d27f55f	0.04100549
118	0x3daf3d3e	0.08556603
119	0x3c8a8ecd	0.016913796
120	0x3d6f3ad8	0.058405727
121	0x3e3b4806	0.18289194
122	0xbd013abf	-0.031550165
123	0x3d2b8e5f	0.041883823
124	0xbd39ccee	-0.04536145
125	0xbd66089f	-0.056160565
126	0x3dbb945c	0.09159157
127	0x3db5a03d	0.08868454
128	0x3dfe02ef	0.12402903
129	0x3d23d472	0.039997526
130	0x3dd7f087	0.10543924
131	0x3d71a23b	0.058992606
132	0x3dbac2c6	0.09119181
133	0x3db0fa2c	0.086414665
134	0x3dda829d	0.10669444
135	0x3c4aed20	0.012385637
136	0xbd653d68	-0.055966765
137	0xbcb75321	-0.022378506
138	0x3d1ca757	0.038245525
139	0xbd25ae27	-0.040449288
140	0x3b0a2dff	0.0021084545
141	0xbd127083	-0.03575183
142	0xbd4f8f9b	-0.050674062
143	0x3c97f3c1	0.018548848
144	0x3e25dbae	0.16197082
145	0x3d24b462	0.04021109
146	0x3d07e02e	0.03317278
147	0xbd05de42	-0.032682665
148	0xbdf5aba1	-0.11995626
149	0xbbb79fcf	-0.0056037675
150	0x3d5e33eb	0.05424873
151	0x3d08fe96	0.033445917
152	0x3d787035	0.060653884
153	0x3d37f764	0.044913664
154	0x3d608fc0	0.05482459
155	0xbcb60b9d	-0.022222335
156	0x3e1d6465	0.15370329
157	0x3ddd1b7c	0.10796258
158	0x3b3239f8	0.0027195197
159	0xbd0d3789	-0.03447679
160	0xbc1e725b	-0.009670819
161	0xbc569e17	-0.013099215
162	0xbdac0e89	-0.0840121
163	0xbc86c575	-0.016451577
164	0x3b6d8494	0.0036242353
165	0x3b21a103	0.002466262
166	0xbdb1ab85	-0.08675293
167	0xbca9806a	-0.020691115
168	0x3ba4cd3f	0.00502935
169	0xbdc74c02	-0.09731294
170	0xbde227b0	-0.11042726
171	0x3e2c756c	0.16841668
172	0x3df0e641	0.117626674
173	0x3cca7038	0.024711713
174	0x3e01469f	0.12624596
175	0x3e13d439	0.14436425
176	0x3d13c89d	0.03607999
177	0xbd863121	-0.06552339
178	0x3db48ba6	0.08815698
179	0x3d1c73a9	0.03819624
180	0x3c4c7ee6	0.012481427
181	0xbd93a50e	-0.07209216
182	0xbdba6f6e	-0.09103285
183	0x3cc9ac9c	0.02461844
184	0x3dadb09e	0.08480953
185	0x3d701711	0.058615748
186	0xbde5ddbb	-0.11223932
187	0xbd860238	-0.06543392
188	0x3d9c6b64	0.07637671
189	0x3dc47e3e	0.09594391
190	0x3e2c0e95	0.16802438
191	0x3d87d39c	0.06632158
192	0x3e515368	0.20441973
193	0x3e7bf78a	0.24606147
194	0x3dcde43e	0.10053299
195	0x3cc456ac	0.02396711
196	0x3dd7fc6f	0.10546195
197	0x3d8ce1d8	0.06879014
198	0xbcaf6037	-0.021408184
199	0x3d00676f	0.031348642
200	0xbd69859b	-0.05701218
201	0x3da3ae61	0.079922445
202	0x3e1fa33a	0.1558961
203	0xba911d3e	-0.0011071337
204	0xbce0cb5a	-0.027440716
205	0xbc243553	-0.010022479
206	0x3d4ec653	0.050482105
207	0xbd9cd937	-0.07658618
208	0xbe08b775	-0.13351233
209	0xbe00271f	-0.12514924
210	0xbe032f43	-0.12810998
211	0xbe0c33f7	-0.13691698
212	0xbbee32bb	-0.007269231
213	0xbd546a38	-0.05185911
214	0xbc5a4f02	-0.013324501
215	0xbcfc14a3	-0.03077156
216	0x3a78f6a0	0.0009497199
217	0x3dcb408d	0.099244215
218	0x3d8d2ea8	0.068936646
219	0x3d6bb44b	0.057544988
220	0x3da25d26	0.07927923
221	0xbd4b8957	-0.049691524
222	0xbce38405	-0.027772913
223	0x3d9c2fcc	0.07626304
224	0xbcb74bb6	-0.022374969
225	0x3c0786cc	0.008271884
226	0x3dc3369f	0.095319025
227	0x3dffd92d	0.12492595
228	0x3dfd4ccf	0.12368166
229	0x3d4475ba	0.047963835
230	0x3da24c95	0.07924763
231	0x3d1df542	0.038563974
232	0xbcd461fb	-0.025925627
233	0x3d9b015a	0.07568617
234	0x3ce4c0d8	0.027923986
235	0x3dbecc87	0.09316354
236	0x3c357eda	0.011077607
237	0xbdde0558	-0.10840863
238	0xbca2938a	-0.019845743
239	0xbd0cdc3f	-0.03438973
240	0xbdc76ccc	-0.09737548
241	0x3dbb80e8	0.09155446
242	0xbd6bb2aa	-0.057543434
243	0xbda5c3d3	-0.08093991
244	0xbd81d7fe	-0.06340025
245	0xbe038c94	-0.12846595
246	0xbd8b85bf	-0.068126194
247	0xbd2c81fa	-0.042116143
248	0xbccf9d9e	-0.025343712
249	0x3c984af6	0.018590432
250	0xbda14485	-0.07874397
251	0xbcd6d938	-0.026226625
252	0xbd1e1a82	-0.0385995
253	0x3cd7979e	0.026317414
254	0x3da8db31	0.082449324
255	0xbd084fe1	-0.033279303

conv3.bias f4 [12]
0	0xbe4db0a4	-0.20086914
1	0xbe2e16e9	-0.17000927
2	0xbe223c25	-0.15843256
3	0xbe140660	-0.14455557
4	0xbe52d98d	-0.20590802
5	0xbe629a3e	-0.22129151
6	0xbe3b5cca	-0.18297115
7	0xbe4a0809	-0.19729628
8	0xbe8d67e5	-0.27618328
9	0xbe83813d	-0.25684538
10	0xbe935457	-0.28775284
11	0xbe49c9ce	-0.19705889
