net_params_espcn.pkl (torch, 257799 bytes, 8 tensors)

conv1.weight f4 [64, 3, 5, 5]
00000000: 3e45 063c 4abd 4ebd 66ef d6bd 6d2d c93d
00000010: 2408 a83d 9faa 49bd 41e5 d83c 3cde 303d
00000020: e343 d63c 7800 003e a98f 223c b432 433d
00000030: 7d38 62bd b822 a2bc 1c8a a9bc cd81 3abc
00000040: 2fdb 923c df21 a7bd b47e 78bd f848 ebbc
00000050: 2944 0dbd f896 a03d 07d6 f63d 1bd4 c6bb
00000060: 0197 513d ebf9 db3b a2b9 4e3d a98a cd3a
00000070: 7cf3 02bd 5140 11bd 8287 e7bd 4c72 7b3d
00000080: 2287 3c3d 3a4c 87bd 5f35 02bb 0008 d0bd
00000090: 9b6e e8bd 005c b3bd 6ba2 d2bd 5aaa 35bc
000000a0: ca2e 823d 2fdf df3b a388 e6bd 0ad4 ff3c
000000b0: 2f04 4abc dbbb 173d 467a bebd 9713 4a3d
000000c0: 72b3 b2bd d4d7 8dbd 757e 1a3d b534 72bd
000000d0: 270a 80bd 2e2f d23d 0025 963c 75fc ebbc
000000e0: dd8a 54bb 6aca 043e b13c bebd 0f73 8bbd
000000f0: 6bbf 8ebd e6e8 dcbd 364e 9abd 83aa c3bd
00000100: 35cf 1abc 5dda b73d 6d93 cc3d 026d 8f3d
00000110: 2673 353d 813c f93c bc12 69bd 058a d03d
00000120: 1791 e2bb f12a 8abd 3541 2b3c be09 babc
00000130: 4462 98bc a628 ffbd 975f ba3d bc9c 84bb
00000140: d589 2cbd 05ea 3bbd 7c74 e73d 55fe dc3d
00000150: 803f 6a3d a099 db3d ee47 18bd f830 b63d
00000160: d8ab 9e3d e373 7b3d 7ead ab3d 56b1 b63d
00000170: e22c e2bd ce13 573d 83cb b9bd c7fb 5dbd
00000180: bd3f 053d 610f b73d ec21 b13d d3ff f4bc
00000190: 69ae 023e b00f 2f3d afe9 8bbd 2465 04bd
000001a0: e205 733b 3e35 a63d aac6 8ebc 13bb b63d
000001b0: dc14 26bd 5f75 ab3d 669f ccbd 9007 62bc
000001c0: 80a1 2d3d c47e b63d 79bc 7f3d 9f67 dbbd
000001d0: 44cf 11bd 155f 923c 340b 9bbd bc37 033e
000001e0: c1fe 9ebd ef7a 643d f36a 70bd c35e d33d
000001f0: c5d4 aabd 60dd 3cbd dc13 adbc 3b35 87bd
00000200: e9d1 e83d 65c7 c93d c637 8b3b 11f8 19bd
00000210: 4d00 823c 189a acbd 86c0 a4bd 9442 883c
00000220: b412 d4bd 396f 3ebd 699f fdbd 34a7 0ebd
00000230: 3a7a d5bc 1fd6 d0bd 1649 27be 3f60 fbbd
00000240: 6640 933b c3e1 d3bd 90a5 083b 5168 c13c
00000250: 24aa 1fbd 74bf d23c a541 903d f071 283d
00000260: 6415 8fb9 c26a aabc abe9 573d 342e 6ebd
00000270: fd36 8dbd 1372 5dbd e0bc 813d 9b76 d8bb
00000280: f75a 933d 70f3 0abe b695 efbd 0fc9 ba3d
00000290: 8086 e3bd 8fd3 643d 9303 e3bd 8483 ffbd
000002a0: 1d8a 48bd a9a3 41bd 6273 a0bd c1ba 30bc
000002b0: f1ef f43c 46ef 76bd d9e4 6b3c a766 083d
000002c0: 3072 ae3c da2e 763d 2a8b 933d 929e 2bbd
000002d0: 7642 523c b40c eebd da2c 03be 6e7f 653d
000002e0: 74ef ad3d 0449 64bc 3779 07be 3142 03bc
000002f0: e872 c63d 810a ed3d 66c2 30bd fe75 08be
00000300: b576 57bd 3fb5 07be 10ef 2e3c 1c6e 33bd
00000310: b80f dcbb 4714 de3c bea3 f5bb a0e2 0d3e
00000320: 2353 9f3d 748a 783d d3bd 6cbd 8629 f53b
00000330: 7286 2c3d 87b2 823d 2237 903d af7d d4bd
00000340: ef00 abbd d422 203d fbf9 17bd 8b57 19be
00000350: d635 a23d 3bd1 153d 2283 12bb 45cd ce3c
00000360: a050 4abd 33cc 343d 5ecd b43d 4215 8d3c
00000370: e86d ad3d 2572 c3bc a660 9d3d 9f79 803d
00000380: bf78 093e 163d 9fbd 044a da3b e565 043e
00000390: a5a9 4abd f70e a93d 6682 08bd e72c 813c
000003a0: 4e34 d9bd fe0c ddbd ee88 3d3d 41f2 783d
000003b0: 093f fbbd 4243 9bbc 6c7f ea3c 2676 83bd
000003c0: 2265 4b3d 802c ddbd 3952 17bd 8eb5 8c3d
000003d0: f2f2 753d f08b 943d 5e62 9a3c 1587 8b3d
000003e0: ddbe 933d 7b96 e63c 9225 b3bc 4b1a 943d
000003f0: eb01 c83d df8c bfbd 782a e93d ecf4 a5ba
0.00819522 -0.05047349 -0.104948804 0.098231174 0.08204678 -0.049234983 0.026476504 0.04318069
0.026155418 0.12500179 0.009921947 0.047655776 -0.055229653 -0.019791946 -0.020695738 -0.011383486
0.01792678 -0.08160757 -0.06066771 -0.028721318 -0.03448883 0.07841295 0.12052541 -0.0060677654
0.0511694 0.006713142 0.050470002 0.0015681583 -0.031970486 -0.035461728 -0.11305143 0.0613883
0.04602731 -0.06606336 -0.0019868237 -0.10157776 -0.11349221 -0.08757782 -0.10284885 -0.011087978
0.063565806 0.0068320255 -0.1125653 0.031229038 -0.012330099 0.037044387 -0.093006656 0.04933509
-0.08725633 -0.069259316 0.037718255 -0.059132297 -0.062519364 0.10262905 0.01832819 -0.028806904
-0.0032431402 0.1296784 -0.0928892 -0.06809055 -0.06970104 -0.10786609 -0.07534449 -0.09554007
-0.009448816 0.08977196 0.09989057 0.070032135 0.044299267 0.030424358 -0.056902632 0.10182575
-0.0069142687 -0.06746472 0.010452558 -0.022709724 -0.018601544 -0.12458925 0.091002636 -0.0040470045
-0.042123634 -0.045877475 0.113015145 0.107906975 0.057189465 0.10722661 -0.037177972 0.08896059
0.0774762 0.061389815 0.083827004 0.08920543 -0.11043717 0.05250912 -0.0907202 -0.05419519
0.03253149 0.0893848 0.08649048 -0.029907143 0.12761845 0.04273957 -0.06831681 -0.032323018
0.0037082364 0.08115624 -0.017428715 0.089224 -0.040547237 0.08371996 -0.0999134 -0.013795748
0.042390347 0.089108974 0.0624356 -0.107131235 -0.035598055 0.017867604 -0.07570496 0.1281423
-0.07763434 0.0557813 -0.058695745 0.10320809 -0.08341364 -0.046109557 -0.021127634 -0.0660195
0.11368162 0.098524846 0.004248592 -0.03759009 0.015869284 -0.084278286 -0.080445334 0.01663331
-0.1035513 -0.04649279 -0.12383921 -0.034827426 -0.026059259 -0.1019709 -0.16336474 -0.12274217
0.004493761 -0.10345795 0.0020850636 0.023609312 -0.038980618 0.025726058 0.07043771 0.041124284
-0.00027291023 -0.02080286 0.052713078 -0.05814953 -0.06895254 -0.054063868 0.06334853 -0.0066059357
0.071950845 -0.13569427 -0.11698477 0.0912038 -0.11109638 0.05586582 -0.11084666 -0.124762565
-0.04895984 -0.04727522 -0.078345075 -0.010786713 0.02989957 -0.060286783 0.014397823 0.033301022
0.021294683 0.060103275 0.07204278 -0.04189927 0.012833228 -0.11623517 -0.12810078 0.05602973
0.08492938 -0.013933424 -0.13229834 -0.008011387 0.096898854 0.11574269 -0.043154143 -0.1332626
-0.052603442 -0.13252734 0.010677114 -0.04380618 -0.006715741 0.027109278 -0.007496326 0.13855982
0.07779529 0.060678914 -0.057798218 0.0074817566 0.042120405 0.06381708 0.07041766 -0.10375535
-0.083497874 0.039095715 -0.037103634 -0.14974801 0.07920425 0.03657649 -0.0022355993 0.025244365
-0.049393296 0.044140052 0.08828233 0.01722205 0.084682286 -0.02385814 0.0768445 0.062731974
0.13424967 -0.07775323 0.0066616554 0.12929495 -0.049478192 0.082548074 -0.033327483 0.015768481
-0.106056795 -0.10793494 0.046273164 0.060777906 -0.122678824 -0.01895297 0.028625213 -0.064190194
0.049656995 -0.10799503 -0.036943648 0.06870566 0.060046144 0.072532535 0.018845733 0.06812874
0.07214139 0.028147927 -0.0218685 0.072315775 0.09765991 -0.09353041 0.113850534 -0.0012661493

conv1.bias f4 [64]
00000000: 73b1 f93d 8936 bb3d d3de 103d d31a 123e
00000010: 85ee 3d3d f4b3 7e3d 20aa 0a3e eb99 ddbd
00000020: fa99 b43d 217d a53c 1a1e 0dbd ad60 b1bd
00000030: 9988 2d3e 8d7d 573d b0ec 083e cd47 66bd
00000040: 5b18 14be a966 093c 42be 1f3e 21fe 9bbd
00000050: 6afe 14be 99ed 0c3d 15d6 e43c 83d0 3ebe
00000060: 2dbc 253d 23a2 0ebe e345 3b3d 26e5 473c
00000070: 75d5 54bd 78ea ccbd 190b 04be 4a42 863d
00000080: bec3 cabd 874b cf3d 1f4d 843d d045 19bd
00000090: 133d 0b3e fdb3 133e f407 dcbd 9a5b f5bb
000000a0: d857 e33d 9d1a f3bd 0088 8fbd 473a 46bd
000000b0: d307 a9bc f8d2 5abc d9dd 443e a885 313e
000000c0: 27fb a1bd 40ec 0d3d 6802 8cbd e764 e4bd
000000d0: 076e afbd 2a35 0ebe a28d 023d 1bdc a4bd
000000e0: 1853 36be a078 d53c 3003 aabd 300c a83d
000000f0: 2878 e83c 2df9 ab3d b1d0 223e b0ed da3d
0.12192049 0.09141261 0.03536875 0.14268045 0.046370048 0.062183335 0.1354146 -0.10820373
0.08818431 0.020201268 -0.034452535 -0.086610176 0.16946639 0.05260997 0.13371539 -0.05622082
-0.14462416 0.0083862925 0.15599921 -0.076168306 -0.14550176 0.03440628 0.027934114 -0.18634228
0.04046266 -0.13929038 0.045720946 0.012200629 -0.05196138 -0.10005659 -0.12894858 0.065556124
-0.09900616 0.101218276 0.06460022 -0.037420094 0.13597517 0.14424129 -0.107437044 -0.0074877264
0.11100739 -0.118703105 -0.07008362 -0.04839542 -0.020633614 -0.013355963 0.19225253 0.17336142
-0.07909232 0.034649134 -0.068363965 -0.11152058 -0.08565908 -0.13887468 0.031873353 -0.08049794
-0.17805135 0.026058495 -0.08301389 0.082054496 0.028377607 0.08397136 0.15899922 0.106898665

conv2.weight f4 [64, 64, 3, 3]
00000000: 7df1 25bd 2f1c 6cbb 0b55 1cbd 6a62 3cbd
00000010: e9da 28bd 800f 22bb 7c67 8fbc fc2f 3dbc
00000020: 07b3 9fbc c86e 95bc 275e 00bd 3615 0fbc
00000030: d287 4bb8 bf72 853c 08ec 3cbd 87b1 d4bc
00000040: 9ca0 51bc 6573 ac3c d758 d93b ee17 ee3a
00000050: f91c 06bc 4e21 303d 60a3 97bc 0a3a 25bd
00000060: d4ac 873c d2fb 02bc 3151 48bd df7c dcbc
00000070: 6980 66bc 9658 34bc 7bce 84bc ecec 22b7
00000080: e251 203b 0fcf aabc 8c67 4fbd fd58 1cbc
00000090: f2af 053d 6843 ddbc 8e92 ee3b beaf 49bb
000000a0: 2ca1 be3c 9079 083c c376 9bbc 2985 f53a
000000b0: 11f1 2f3d e36c 5f3c 543f 5ebc 7049 bc3c
000000c0: 1135 6f3c 5ff0 0abd 89b4 10bb 6199 c23c
000000d0: e599 223d 4114 0c3d b468 3b3d 2237 73bd
000000e0: 246d 29bc 65dd b13c cd93 35bd 4c23 29bd
000000f0: c660 e13b 6cc7 1abd 126f 4bbd bcdc 9f3b
00000100: 0898 963a 36f3 29bd e01f 983c a5c2 5bbc
00000110: 28c3 8ebc 1481 1c3d 6e43 c93c 707b 1d3c
00000120: 08c1 16bc 8cb6 c1bc abf1 98bc 7ea3 03bc
00000130: dd87 91bc 44ee 67bd 0bb6 88bc 4e13 c93c
00000140: 8731 e8bc a817 02bd 4435 31bb 02f2 e6bc
00000150: f212 973c 46f2 1ebd 0f27 62bd 85bb 873c
00000160: 8b51 9f3c 3af7 8f3b 8cf6 03bd e386 dbbc
00000170: 0b0a 303d 592e f63c f771 2b3d f3ef 61bc
00000180: f8e1 08bd 4923 273d 8f0d 0a3b ef3f bf3c
00000190: ef56 573d 316b 203d 6f69 d3bc 4831 80bc
000001a0: 4cba 16ba cfde 803c 0786 1c3d 9cb0 9e3c
000001b0: 27ff 49bd cc72 1bbd 3560 35bc 5190 e43c
000001c0: e526 67bd d011 bdbb 089a 4b3c 121d 0cbd
000001d0: f728 b03c d9ea 5cbc 615b 2a3c 673b 1b3d
000001e0: 1007 4c3b 10fe 73bc 0777 5e3c baeb 13bb
000001f0: dadc 0f3d 6443 4f3d 2ec1 83bc e1b9 fabc
00000200: 64ce 3cbc 132d f23a deec 31bd 46ac 2cbd
00000210: 7f28 53bb 73e4 953c 2d52 27bc dee4 c13c
00000220: 4761 eabb 7f37 09bd 8c53 61bd bf2e a73c
00000230: 7bb6 a33c 2f31 3dbc ef89 413d 5935 88bc
00000240: f9bc 123c daed 20bd 8022 e13b bfcb 943b
00000250: 2b26 1c3d a9c0 1e3d 83a4 3d3c c746 283d
00000260: fbae 1c3b 5855 583d bace 603c efce 81bb
00000270: 2e03 82bc 4c60 a93c 5bad 3b3c de02 b2bc
00000280: 3325 0fbd 6004 ee3c bebd fcbc 2d47 29bd
00000290: cf49 ddbc 507a a4bb d162 883c 6600 d53b
000002a0: 23ec 7f3c e870 30bb 2374 b43b a0e1 443c
000002b0: 9643 9fbc 4c05 a3bb a1a9 d03c 31a4 e63b
000002c0: 8eaf 4e3c 2015 e2bc 67c9 0d3c acb9 9f3c
000002d0: e6f9 6a3c 660f 6d3d ae9d f93c ba85 523d
000002e0: 740b 693d 755d 213b 1502 cf3c 2faf 4b3d
000002f0: 3dd0 523d a2bf 6c3b 0cc7 fdbc 0223 e43c
00000300: a7b1 a8bc 27da 3abd dfac 5d3c 2247 cdbc
00000310: 4c88 1abb a12b 4e3c d9eb 30bd d09c 37bc
00000320: 4843 a8bc 6840 01bb 2966 16bd e5bd 683c
00000330: 6162 b43c 0641 77bc 17ba 35bd 43e3 393c
00000340: 3dfc 703d 85e8 853c 951f 463c 38ea a3bc
00000350: 7eff 70bb bd7e 543c 520a ca3c 02a8 173d
00000360: e921 d73c 5dd3 d13c 801d 38bd 9a56 38bd
00000370: e290 163d e140 1c3a 020d f6bc cb73 f9bc
00000380: d2be a5bc 7124 b63a 4f6e 0e3d d418 86bc
00000390: 82c5 d33c bcfb aabc c7db b53c e4c9 363d
000003a0: 9ae2 a9bb bc20 11bd e5b5 233c ffea 2c3b
000003b0: 2081 1e3c 91d3 1b3d 829e 223d 2cab 73bc
000003c0: d4f7 0bbd 743e 99bb a942 dfbc e7d9 eebc
000003d0: d03f 09bd 5044 d93c 3ace 95bc c290 2abd
000003e0: feb5 67bd d994 9b3a daec 5bbb b9f4 5a3c
000003f0: 1b75 72bc 5fc2 53bb 5e15 40bd 7951 f5bc
-0.040513504 -0.003602754 -0.03816704 -0.045992292 -0.041224394 -0.0024728477 -0.0175054 -0.011547085
-0.019494547 -0.018241301 -0.03133979 -0.008733084 -4.8525464e-05 0.016290067 -0.046123534 -0.025963558
-0.01279464 0.021051118 0.006632905 0.0018165091 -0.008185619 0.04300051 -0.01851052 -0.040338553
0.016561903 -0.007994609 -0.048905555 -0.026915012 -0.014068701 -0.011007449 -0.016211739 -9.711115e-06
0.0024462868 -0.020850686 -0.05063586 -0.009542701 0.032638498 -0.02700968 0.0072806543 -0.0030774917
0.023270212 0.008329764 -0.018977528 0.0018731701 0.04295451 0.0136368 -0.013564903 0.022984236
0.014600054 -0.033920642 -0.0022080264 0.023754777 0.039697547 0.034199003 0.04575415 -0.05937875
-0.010340963 0.021712014 -0.044330407 -0.041293427 0.0068779914 -0.03778784 -0.04966647 0.0048786085
0.0011489401 -0.04149171 0.018569887 -0.013413106 -0.017427042 0.038209036 0.024568286 0.009611949
-0.009201296 -0.023646615 -0.018669924 -0.008034585 -0.01776498 -0.056623712 -0.016688367 0.024545338
-0.028343929 -0.03176084 -0.0027039805 -0.02819157 0.018441651 -0.03880527 -0.05521303 0.016568908
0.019448062 0.0043934854 -0.032217547 -0.026797717 0.042978328 0.030051397 0.041856732 -0.0137901185
-0.033418626 0.040805135 0.002106521 0.023345916 0.05257314 0.039164726 -0.02580711 -0.0156485
-0.00057498063 0.015731243 0.038213756 0.019371323 -0.049315598 -0.037951276 -0.011070301 0.027900847
-0.056433577 -0.0057699457 0.012426861 -0.03420741 0.021503909 -0.013483726 0.010397763 0.037898447
0.003113214 -0.014892116 0.013578183 -0.0022570924 0.03512273 0.050601378 -0.016083326 -0.030606212
-0.011523817 0.0018476568 -0.043438785 -0.04215648 -0.0032220182 0.01829741 -0.010212463 0.023668703
-0.0071527096 -0.03350019 -0.055011317 0.020408032 0.019984474 -0.011547371 0.047250684 -0.016627
0.008956187 -0.039289333 0.006870568 0.00454089 0.038122337 0.038757954 0.011574867 0.041083124
0.0023908007 0.052815765 0.013721162 -0.003961436 -0.015870657 0.0206758 0.011454905 -0.021729883
-0.034947585 0.02905482 -0.030852195 -0.041327644 -0.027012734 -0.0050194636 0.016648682 0.0065002916
0.015620264 -0.0026922766 0.0055070086 0.012016684 -0.019441407 -0.0049749967 0.02547151 0.007038616
0.012615098 -0.027597964 0.008653975 0.019497715 0.014341807 0.057876013 0.030470695 0.051397063
0.05689569 0.0024622355 0.025269547 0.049727615 0.051468123 0.0036124964 -0.030978702 0.027848724
-0.020592524 -0.045618203 0.013529985 -0.025058333 -0.0023579774 0.012583644 -0.04319367 -0.011206821
-0.020539895 -0.0019722227 -0.03671852 0.014205431 0.022019567 -0.015091186 -0.044366922 0.011345687
0.058834303 0.016346226 0.012092491 -0.020009145 -0.003677338 0.01296967 0.024663124 0.03702546
0.026261287 0.025613481 -0.04495001 -0.045004465 0.036759265 0.00059605954 -0.0300355 -0.030450722
-0.020232592 0.0013896358 0.034773167 -0.01636926 0.025851015 -0.02087199 0.022199525 0.04462613
-0.0051844837 -0.03543161 0.0099920975 0.0026385186 0.0096743405 0.038043562 0.039701946 -0.0148723535
-0.034171894 -0.0046766344 -0.027253466 -0.029156638 -0.033508122 0.026521832 -0.018286813 -0.041641958
-0.056570046 0.0011869922 -0.0033557923 0.0133640105 -0.014798428 -0.00323119 -0.046895377 -0.029946076

conv2.bias f4 [64]
00000000: 5093 b5bd 2428 e6bc ee36 bd3d fc07 353d
00000010: 52c8 0a3e 2f7b ea3c 49f0 183c 49da 9d3b
00000020: d26c 1e3d deae df3c 216b 413d 36d4 923c
00000030: f309 1c3d 4f54 8bbd 237c efba 4632 ce3d
00000040: c24e aa3d ced7 50bd 0a9a 8d3d ba36 adbd
00000050: ea73 53bd 06b7 28bd 1903 3d3d cdad a6bd
00000060: f0bb 96bd 5411 84bd e693 dcbb 811e a63a
00000070: 0b06 4d3d fbc0 49bc c097 71bd 4b6e e1bd
00000080: 2fee 45bc 7e2c 0c3d 7dda 61bd 0891 e73d
00000090: 95b1 1fbd 404f e73c 8794 13bd 4884 eabc
000000a0: 5360 863d a312 95bb 482a eabb 3a00 323d
000000b0: fcfb 03bd 9e71 d0bc 9c92 bf3c 67d3 693d
000000c0: df4a e43d bd3a e03c fafb 92bc 4476 3dbb
000000d0: c4b1 94bc eaf9 dabd e00e 0bbd 4fec 62bd
000000e0: 1099 c73d e388 73bc 8036 51bd b6d5 db3c
000000f0: dbfa a53d 450d b53c f705 1d3c ba8f 303d
-0.08865988 -0.028095312 0.09238993 0.044197068 0.13552979 0.028623192 0.009334632 0.0048172814
0.038677998 0.027305063 0.047221307 0.017923456 0.038095426 -0.0680319 -0.0018271249 0.10068183
0.08315803 -0.050987057 0.06914146 -0.08457704 -0.051624216 -0.04119017 0.046145532 -0.081386186
-0.07360065 -0.064486176 -0.006731498 0.0012673886 0.05005459 -0.012314077 -0.05898261 -0.11007365
-0.012080713 0.03422212 -0.055140007 0.113069594 -0.038987715 0.028236032 -0.03603032 -0.02862753
0.06561341 -0.004549341 -0.0071461536 0.043457247 -0.032222733 -0.025444802 0.023385338 0.057086375
0.11147093 0.027371759 -0.017942417 -0.0028909603 -0.018151172 -0.106921986 -0.033949733 -0.055401143
0.09745991 -0.014864179 -0.051077366 0.026835304 0.081044875 0.022101054 0.009583942 0.04310582

conv3.weight f4 [32, 64, 3, 3]
00000000: bb6d 9dbc aba1 3e3d ff69 df3c f7bf 2bbb
00000010: d19a 2abc a2b3 463d 58ed 363d 3b55 103d
00000020: 45f6 fd3c e98b 223d 8995 923c da93 e13b
00000030: e621 f33a 55d9 0fbd 0e32 4039 8c94 81bc
00000040: b49e 32bd 66ff e1bc c23c 503d 1228 bd3c
00000050: 94dd 853a c706 4bbd abf7 20bc 0dac 34bc
00000060: bb1a 9b3c 25b5 cf3c 900e 20bd 3e9d 28bc
00000070: e6f0 20bd 3d08 18bd 92d4 b3bc 7fe1 01bd
00000080: a0af 28bd 69aa 2bbb 0a01 0cbd fb68 053d
00000090: 69ca 17bb 0672 c1bc 689b 98bb 51c0 fd3b
000000a0: fd2d 88bd 9a9e 8b3c 908d ec3c 7c15 23bd
000000b0: dd15 7d3b 0605 493c 6431 f13c b6e0 4ebd
000000c0: df45 833c 8135 02bd 02a5 143c 6e39 b53c
000000d0: 2ea5 68bc 80b3 25bd d7d9 39bc 4410 8bbc
000000e0: 3963 2ebd 75fe ccbc b0e2 47bc 67aa 1a3d
000000f0: c76e 31bc 49da 84bc bf6b 593a f9f9 1b3d
00000100: c2d2 f03c eeff 22bc 5852 f4bc 1d94 7a3c
00000110: d607 db3c 9ca2 04bd 9a59 85bb 410f ddbc
00000120: 7d39 34bd b0b8 313c dee1 a13c a04e 90bd
00000130: a151 58bd 2b7e 983b 47d0 dfbc 27c0 0abd
00000140: 8017 b7bc a14e 16bd 813f d83c 81e8 13ba
00000150: fb03 31bb 7a7a d7bc 46bb 62bd 8564 de39
00000160: 9c3b 473b acc4 c4bc de33 773c 0734 523d
00000170: ffe1 3bbc d15d 49bd 9135 cabb a447 243d
00000180: daf4 4cbd b374 07bd 8a87 06bd ba4b fe3c
00000190: e42a ee3b 5b41 dabb fa49 08bc 10f8 a43b
000001a0: 5e34 b0bb 6f67 b1bc 1d1a 8e3c 6953 f3bb
000001b0: ed50 1c3a 6b5f c23c 66b4 97bc ad64 4f3c
000001c0: e296 36bc 8da2 713c 5b5b 1fbd b4e1 03bc
000001d0: 5fec e63c 7eb4 283c eca5 d2bc a599 2d3d
000001e0: 3a82 ad3c fb7c ea3c 73c9 f9bc 6185 98bc
000001f0: 6f33 443d 1129 21bc 1aa8 54bd a609 37bd
00000200: 61f2 99bc ecd2 023d 48ad b3bc 15d7 3dbc
00000210: 5909 1f3d 7873 063c 45a9 ea3c 2cbd 15bc
00000220: b0aa 18bd a470 6bbc 5083 b7bc 64fe 87bc
00000230: 64d8 b1bc d688 973b 937f bfbb 524e ac3c
00000240: 6c5e e03c 3970 05bc 0d93 cbbc 6a8f 0a3d
00000250: c92b 3b3c d28e 94bc dace 403d 581a b8bc
00000260: ac94 06bd 10b4 adbc 7436 973c 1d11 8fbc
00000270: 84f4 cc3c c405 983c d75f 96bc 44b2 e2bc
00000280: fad3 c3bc 3870 9c3b 0fd7 39bd 8d06 32bd
00000290: 2722 243c 1e58 e33c 1ffd a83b 92da f4bc
000002a0: 9a3d 3cbd 3fc4 33bd 2471 e4bb 88e8 763b
000002b0: 8844 9a3c 478e 1bbb 507a ca3c 17cc 523d
000002c0: 747d 203d 4221 6a3d 2a6c 053d f4ca 7b3c
000002d0: 4026 1a3d 516d 9fbc ad80 41bc fc97 0d3c
000002e0: d147 c43c 3b38 183d 5577 133d e1ab b43c
000002f0: eb2c 683c 5fb2 5c3c 162b 72bc eeb9 99bc
00000300: 2f43 3a3c eb6b 40bc 3e7f e63a 4705 32bd
00000310: 1fd2 4dbc 0e4d 823c ca00 e03c 31a0 1fbc
00000320: 7450 bc3c c96e 97bb d455 97bc 533d bfbc
00000330: f0f4 7dbc 8caf a53c 3f05 b03c 5fb0 28bd
00000340: 06be 07bd 121f 94bb 908d 033d 91ca 7e3c
00000350: f832 80bb 1741 6b3c 18b4 2b3d a1a1 c93c
00000360: a2d2 3c3d 7f65 1abc ac45 a4bb 6bc1 8c3b
00000370: cc88 8e3d 6c40 a63b be7c 06bd 5764 243d
00000380: c9c6 c53c 0758 ee3b c82c 21bd 10a2 83bc
00000390: 7487 c73c a24f 343d 47d0 313c d01c 2dbd
000003a0: 52c2 253d 0fed 2dbd 8c76 b53c 1de9 e93b
000003b0: 3355 ae3b 973d f6bb 4399 36bc 1b1e 033d
000003c0: e50a 923b ccf9 18bd 0045 ba3c 6af0 1c3d
000003d0: 2337 fc3c efce 79bc a971 073d d053 e9bc
000003e0: 2ab1 9a3c 4625 95bb 6cc2 3cbb 0be0 8d3a
000003f0: c526 d43c 758d a33b 2f4f 57ba 2cf7 18bd
-0.019217363 0.046540897 0.027272223 -0.002620695 -0.010412888 0.048511155 0.044659942 0.035237532
0.03100122 0.03968421 0.01789357 0.0068840804 0.0018549531 -0.035119373 0.00018329194 -0.015817903
-0.043608382 -0.027587604 0.050839193 0.023090396 0.001021313 -0.04956701 -0.009824674 -0.011027348
0.018933645 0.025354931 -0.039076388 -0.010291396 -0.03929224 -0.03711723 -0.021951947 -0.03170919
-0.041183114 -0.0026194102 -0.03418068 0.03257082 -0.0023161417 -0.02361394 -0.0046571977 0.007743873
-0.066493966 0.0170434 0.028876096 -0.03981541 0.0038617768 0.012269264 0.029442497 -0.05050727
0.016024528 -0.031789307 0.009072544 0.022122111 -0.014199538 -0.040454388 -0.011343441 -0.01697553
-0.042575095 -0.025023678 -0.012200043 0.037760165 -0.010829634 -0.016217368 0.00082939485 0.03808019
0.029397372 -0.009948714 -0.02982442 0.015294102 0.026737135 -0.03238164 -0.004069519 -0.026984813
-0.044000138 0.010847256 0.019761022 -0.070462465 -0.052812222 0.0046537123 -0.027320994 -0.033874657
-0.022350073 -0.03669608 0.026397469 -0.0005642251 -0.002701043 -0.026303519 -0.05535438 0.00042418033
0.003040052 -0.024019562 0.01508805 0.05131915 -0.011467456 -0.049161736 -0.0061709364 0.040107384
-0.050038196 -0.033070277 -0.032844104 0.031041969 0.0072682966 -0.006660623 -0.008318419 0.005034454
-0.0053773364 -0.021655766 0.017346436 -0.0074257147 0.00059629866 0.02372714 -0.018518638 0.01265828
-0.011144372 0.014748228 -0.038905483 -0.008049417 0.028188882 0.010296939 -0.025713883 0.042382855
0.02118026 0.028624048 -0.030491566 -0.018618288 0.047900613 -0.009836451 -0.051918127 -0.044686936
-0.018792333 0.031939432 -0.021933213 -0.011586924 0.038827274 0.008206241 0.028645167 -0.00913934
-0.037272155 -0.014370117 -0.022401482 -0.016600795 -0.021709628 0.0046244664 -0.0058440655 0.02103344
0.027388774 -0.008144432 -0.024850393 0.033828177 0.011424013 -0.018134508 0.04707227 -0.0224735
-0.03285663 -0.021204025 0.018458582 -0.017464215 0.025018938 0.018557437 -0.018356247 -0.027672894
-0.02390479 0.0047741197 -0.04537111 -0.04346328 0.010017908 0.027751978 0.0051571275 -0.029889379
-0.045957185 -0.043888327 -0.006971495 0.003767522 0.018831506 -0.0023735927 0.024716526 0.051464166
0.03918214 0.057160623 0.032573856 0.015368212 0.037634134 -0.019461306 -0.011810464 0.008642193
0.023960026 0.037163 0.036002476 0.022054614 0.0141708655 0.013470261 -0.01478078 -0.018765416
0.011368557 -0.01174448 0.0017585529 -0.043462064 -0.012562304 0.015905883 0.027344126 -0.009742782
0.022987582 -0.004621361 -0.018473543 -0.023344671 -0.015500292 0.020225309 0.021486877 -0.041183826
-0.033140205 -0.0045203054 0.032117426 0.015551225 -0.003912326 0.01435878 0.041919798 0.024613203
0.046099313 -0.009423613 -0.0050131883 0.004295518 0.06959686 0.0050735977 -0.032833807 0.040134754
0.02414264 0.0072736773 -0.039349347 -0.016068488 0.024356581 0.044021256 0.01085288 -0.042263806
0.04046852 -0.042462405 0.022151254 0.007138385 0.005320215 -0.0075146663 -0.011144939 0.032011133
0.004456865 -0.0373476 0.02273798 0.038315214 0.03078801 -0.015247091 0.03306738 -0.028482348
0.018883307 -0.0045515625 -0.0028802408 0.0010824216 0.025897393 0.004991228 -0.00082133984 -0.037345096

conv3.bias f4 [32]
00000000: de51 0abe 13ec 21be 450d a33d b43c a73d
00000010: be84 afbd 3c5f 90bd b87e b2bb 90ce 553e
00000020: 3b4a 043d a381 fabd 0068 38be 4fbb 91bd
00000030: d085 f6bd a152 e33c 36d3 53bd 0c48 a43d
00000040: 3dd8 2c3c 3b67 a9bd 62e9 893b d2fe 793d
00000050: 64af 25bc 210b e73d 2b75 c8bd 09e2 31b9
00000060: 62dc e9b9 3d62 123e 0dad a1bc 09e6 993d
00000070: 68b4 e2bd 99c5 c5bd 1ef0 29bd a347 d93d
-0.13507792 -0.15812711 0.07961515 0.08165875 -0.085702404 -0.070494145 -0.005447235 0.20879579
0.032297354 -0.122317575 -0.18008423 -0.071158044 -0.120372415 0.027749361 -0.0517151 0.08021554
0.010549602 -0.08271643 0.0042087296 0.06103403 -0.010112617 0.112814195 -0.09787973 -0.0001696424
-0.0004460542 0.14295287 -0.019735837 0.07514579 -0.11069566 -0.096568294 -0.04148876 0.10609367

conv4.weight f4 [12, 32, 3, 3]
00000000: 298b 8d3d 8a8e 35bb 763c f93c b3ee d83c
00000010: 3011 913d aba9 843d 0008 9cbc 6c6f a8bc
00000020: f7dd 473c 9e09 af3b be84 9b3d dcd7 a23c
00000030: 3dfe 9c3d 43fa 3f3e 49f2 493d a6d5 603d
00000040: 8444 cd3d 5a21 913d df1c d3bb b597 18bd
00000050: 5812 af3b 8abf 9fbd aeea 19bd b9fc dd3c
00000060: 8e1b e63c 716c 28bd e1d4 743d cb91 2dbd
00000070: 3165 0abd 36f1 353c ec1e c13c d27b 1cbd
00000080: 060a bfbd 1d47 b2bc 4e58 9e3c 69f0 7cbd
00000090: 25b2 ba3d aeca a13d 7d46 983d 0d64 913d
000000a0: 8137 703d 4759 9c3c 4bad 343c f351 39bc
000000b0: fa46 983b b7f3 c63b 3ae3 b93d b13a 94bd
000000c0: 7c05 cb3c f925 923d a245 b1bd f62e 443d
000000d0: 9e2f debc 3855 4c3d 6dca 30bd 791d dc3a
000000e0: 9b44 09bd c954 35bc 8a4f 853d 1137 0dbd
000000f0: 333a 4d3d 4599 863c e058 253d 4540 61bd
00000100: 3692 bcbd 1aba 08bd a6af b6bd e0cb 77bd
00000110: 8cb9 d2bc 4c77 c2bd 5030 16bd 6db7 bb3b
00000120: db80 c3bc 0417 47bd 3dba fd3b eb54 14be
00000130: 7a6e 50be ff85 bbbc 9395 3bbd c4ce d9bd
00000140: 0a3f 413d db2b 1f3d 39e0 8b3d a674 1abc
00000150: 1656 7b3d 155a 4b3d ae42 aebb 336b a8bc
00000160: 0453 4e3d 3b5b 99bd 2a3f c83d f1f9 bc3d
00000170: 6cbd a33c bd80 923d 4d4e ce3c 1900 b43d
00000180: c670 0d3d 964c 0e3d de2f 073d 1fd2 653d
00000190: 2ecf fc3d 264e bf3c 6dea b83d ee41 dc3d
000001a0: 7614 ba3c 7bf2 6d3d b521 953d 5308 873d
000001b0: 1128 403d 3ce2 c1bc bf9e be3c b423 5d3d
000001c0: 6918 313e 57a5 a6bd 8aef b53c 7071 993d
000001d0: 0b1a 18b9 71f9 37bd 4150 04bc 342a 4e3d
000001e0: 0cc6 b5bd 100e d7bd 7684 14bd 9e10 933d
000001f0: 475e 083d 5d0b 243d 7337 30bd 8d68 8f3d
00000200: 2d23 67bd f974 7aba f31d 773d c077 a3ba
00000210: 714f 22bc 3787 5e3d 718e 273d 2e32 debd
00000220: 0d4d a9bd 27ea 65ba 644e a3bd 006b 6bbd
00000230: 4b15 313c d48c 04bc bf5e 2c3d 39fb 6d3d
00000240: d5a7 59bc 9e66 05bd ac8e 0abd 30de abbd
00000250: c766 b4bd 72a0 dcbc 4c29 793d f94e 343d
00000260: fbcc 19bd 8f9e 07be ed1d dabd e625 84bd
00000270: 9952 0dbe b883 c0bc 33c7 1a3c c427 4dbd
00000280: 6a15 86bc c502 e7bc 9974 913d e247 c0bd
00000290: 9026 1c3d 9a90 013d 855e 3dbc b485 35bb
000002a0: 4952 d83d 6a69 913d 6162 a23d 2d66 803d
000002b0: 87e9 8bbc a4b1 e3bc 0721 613c fe38 24bd
000002c0: 2320 453d b66d 543d 57ef 913a 470d 5c3d
000002d0: 0a29 c6ba 4d07 8ebd 0b60 f7bb b35a debd
000002e0: bf61 aebd 7311 613d 0855 81bd 4960 a0bd
000002f0: b729 cbbc 7828 50bd 76a8 88bd d397 8bbc
00000300: af9f 25bc 95d5 bebd 1a76 023c 889c 05bd
00000310: 5f7f 90bc 1c30 94bd ece0 4b3a b35d b63d
00000320: 9ded b13d c24a f93c 8836 4b3c c79c 133d
00000330: af4a 6e3c 6fd9 cf3d 13a8 933d 482a a6bd
00000340: 7a33 30bc 2fa8 a0bc 777f f2bd f73e a039
00000350: c052 4fbd b9bc b0bd 6282 ee3b 94ad bdbb
00000360: 0cca 1a3d 1b9d 1c3e 9012 1a3d 59ae c93c
00000370: f6cd f73c 84c2 3ebd 8417 1dbd 84f8 30bd
00000380: 695e 27bc 5779 f83c da86 313c af2d 52bd
00000390: b30b 09bd 4f80 12be 068f 8bbd f6c3 7bbc
000003a0: 0310 aa3c 585f 6ebc e717 123e a35b 043d
000003b0: a271 273e acce d33d 0aa5 d93d d237 e83c
000003c0: 0745 f93d 346c 8d3d 7292 6a3d 8249 07bd
000003d0: 1472 6a3d 19af 8d3c 5227 a3bd 926f a3bd
000003e0: 8760 2f3d 58fe 1dbd b472 ecba a3ce 22bd
000003f0: d9f3 aa3c 36f2 713d db8d 593d 34e6 8f3d
0.06911308 -0.0027703368 0.030424338 0.026481008 0.070833564 0.06477674 -0.019046783 -0.020560943
0.012198917 0.0053417226 0.07593678 0.01987832 0.076656796 0.18747811 0.049303327 0.05489125
0.10022834 0.070864394 -0.0064426507 -0.037254054 0.005342763 -0.07800205 -0.037577324 0.027098047
0.028089311 -0.041119043 0.05977333 -0.042375367 -0.03378791 0.011104872 0.023574315 -0.03820402
-0.09328084 -0.021762425 0.019329216 -0.06175271 0.091160096 0.07899986 0.074353196 0.07099161
0.058646683 0.01908554 0.011027644 -0.011311042 0.004647133 0.0060715335 0.09076543 -0.07237757
0.024782889 0.07136149 -0.086558595 0.047896348 -0.027122315 0.04988596 -0.0431618 0.0016793452
-0.033512693 -0.011067578 0.065093115 -0.034476344 0.05010433 0.016430506 0.04036796 -0.054992933
-0.09207575 -0.033380605 -0.08920221 -0.060497165 -0.025723241 -0.0949541 -0.03666717 0.005728653
-0.023865154 -0.048605934 0.0077431486 -0.14485519 -0.20354643 -0.022891043 -0.045796942 -0.106351405
0.04717926 0.038860183 0.068298765 -0.009427225 0.061361395 0.049646456 -0.0053180074 -0.02055893
0.05037214 -0.07488104 0.097776726 0.0922736 0.019987784 0.07153461 0.025183821 0.08789081
0.034531377 0.034741007 0.033004634 0.05610859 0.12344204 0.023352694 0.09029088 0.107547626
0.022714835 0.058092576 0.0728182 0.065933846 0.04691321 -0.023667447 0.023269055 0.053989127
0.17294468 -0.08137005 0.022208948 0.074923396 -0.00014505551 -0.04491562 -0.008075775 0.050333217
-0.08875665 -0.10500729 -0.036259137 0.07180904 0.033293035 0.0400499 -0.04302163 0.07002363
-0.05643003 -0.00095541734 0.060331296 -0.0012471601 -0.009906636 0.05432817 0.040907327 -0.10849415
-0.082666494 -0.0008770548 -0.07973936 -0.05747509 0.010808299 -0.008090217 0.042082544 0.058100913
-0.013284643 -0.032568567 -0.03382747 -0.08391988 -0.08808666 -0.026931975 0.0608304 0.044020627
-0.037549 -0.13244079 -0.10650239 -0.06452541 -0.1380104 -0.023500308 0.009446907 -0.05008675
-0.016367633 -0.028199563 0.07102317 -0.093887106 0.038122714 0.031632043 -0.01155818 -0.0027698101
0.1056257 0.07100184 0.079289205 0.062694885 -0.017079128 -0.027794667 0.0137407845 -0.040093414
0.04812635 0.05186244 0.0011133951 0.0537236 -0.0015118432 -0.06934986 -0.007549291 -0.10857143
-0.08514737 0.05494828 -0.063150465 -0.07830865 -0.024800165 -0.050819844 -0.066727564 -0.017040169
-0.010108872 -0.09318081 0.007962728 -0.032619983 -0.01763886 -0.07235739 0.00077773514 0.089045905
0.08687899 0.030431155 0.012403138 0.036038186 0.014544173 0.10148894 0.07209792 -0.08113533
-0.0107544605 -0.019611446 -0.11840718 0.0003056449 -0.050616026 -0.08629746 0.0072787264 -0.0057885144
0.037790343 0.15294306 0.03761536 0.024619268 0.030249577 -0.046572223 -0.038352504 -0.043205753
-0.01021538 0.030331297 0.010835374 -0.0513131 -0.033458423 -0.14306758 -0.06814389 -0.015366545
0.020759588 -0.014549099 0.1426693 0.032313954 0.16351941 0.10342154 0.10627182 0.02834693
0.12171369 0.06905404 0.057268567 -0.033029087 0.0572377 0.017295407 -0.07966484 -0.07980265
0.042816665 -0.03857264 -0.0018039555 -0.039747845 0.020868229 0.05906888 0.0531138 0.0702633

conv4.bias f4 [12]
00000000: a1d3 6abe 42b9 15be 2809 4dbe 2863 dbbd
00000010: 5fbc 06be 0558 09be 1e67 eabd e30d 02be
00000020: 5112 5ebe 190d 0dbe b375 56be 92ae e0bd
-0.22932293 -0.14621451 -0.20023024 -0.10712272 -0.13157795 -0.13412483 -0.11445449 -0.1270061
-0.21686675 -0.13774528 -0.20943336 -0.10970797
